…
|  GPU   GI   CI        PID   Type   Process name                              GPU Memory |
|        ID   ID                                                               Usage      |
|=========================================================================================|
|  No running processes found                                                             |
+-----------------------------------------------------------------------------------------+
Loading datasets
Architecture(
  (dropout): Dropout(p=0.25, inplace=False)
  (cell_list): ModuleList(
    (0): ConvGRUBasalTopDownCell(
      (conv_gates): Conv2d(11, 20, kernel_size=(3, 3), stride=(1, 1), padding=(1, 1), bias=False)
      (conv_can): Conv2d(11, 10, kernel_size=(3, 3), stride=(1, 1), padding=(1, 1), bias=False)
    )
    (1-2): 2 x ConvGRUBasalTopDownCell(
      (conv_gates): Conv2d(20, 20, kernel_size=(3, 3), stride=(1, 1), padding=(1, 1), bias=False)
      (conv_can): Conv2d(20, 10, kernel_size=(3, 3), stride=(1, 1), padding=(1, 1), bias=False)
    )
    (3): ConvGRUBasalTopDownCell(
      (conv_gates): Conv2d(20, 20, kernel_size=(1, 1), stride=(1, 1), bias=False)
      (conv_can): Conv2d(20, 10, kernel_size=(1, 1), stride=(1, 1), bias=False)
    )
    (4): ConvGRUBasalTopDownCell(
      (conv_gates): Conv2d(11, 20, kernel_size=(3, 3), stride=(1, 1), padding=(1, 1), bias=False)
      (conv_can): Conv2d(11, 10, kernel_size=(3, 3), stride=(1, 1), padding=(1, 1), bias=False)
    )
    (5): ConvGRUBasalTopDownCell(
      (conv_gates): Conv2d(42, 20, kernel_size=(3, 3), stride=(1, 1), padding=(1, 1), bias=False)
      (conv_can): Conv2d(42, 10, kernel_size=(3, 3), stride=(1, 1), padding=(1, 1), bias=False)
    )
    (6): ConvGRUBasalTopDownCell(
      (conv_gates): Conv2d(20, 20, kernel_size=(3, 3), stride=(1, 1), padding=(1, 1), bias=False)
      (conv_can): Conv2d(20, 10, kernel_size=(3, 3), stride=(1, 1), padding=(1, 1), bias=False)
    )
  )
)
Loading existing ConvGRU model
No pretrained readout found. Training new one.
Script failed for graph big_rnn with seed 1.

======== GPU REPORT ========

==============NVSMI LOG==============

Timestamp                                 : Wed Nov 27 16:03:37 2024
Driver Version                            : 560.35.03
CUDA Version                              : 12.6
…
|  GPU   GI   CI        PID   Type   Process name                              GPU Memory |
|        ID   ID                                                               Usage      |
|=========================================================================================|
|  No running processes found                                                             |
+-----------------------------------------------------------------------------------------+
Loading datasets
Architecture(
  (dropout): Dropout(p=0.25, inplace=False)
  (cell_list): ModuleList(
    (0): ConvGRUBasalTopDownCell(
      (conv_gates): Conv2d(11, 20, kernel_size=(3, 3), stride=(1, 1), padding=(1, 1), bias=False)
      (conv_can): Conv2d(11, 10, kernel_size=(3, 3), stride=(1, 1), padding=(1, 1), bias=False)
    )
    (1-2): 2 x ConvGRUBasalTopDownCell(
      (conv_gates): Conv2d(20, 20, kernel_size=(3, 3), stride=(1, 1), padding=(1, 1), bias=False)
      (conv_can): Conv2d(20, 10, kernel_size=(3, 3), stride=(1, 1), padding=(1, 1), bias=False)
    )
    (3): ConvGRUBasalTopDownCell(
      (conv_gates): Conv2d(20, 20, kernel_size=(1, 1), stride=(1, 1), bias=False)
      (conv_can): Conv2d(20, 10, kernel_size=(1, 1), stride=(1, 1), bias=False)
    )
    (4): ConvGRUBasalTopDownCell(
      (conv_gates): Conv2d(11, 20, kernel_size=(3, 3), stride=(1, 1), padding=(1, 1), bias=False)
      (conv_can): Conv2d(11, 10, kernel_size=(3, 3), stride=(1, 1), padding=(1, 1), bias=False)
    )
    (5): ConvGRUBasalTopDownCell(
      (conv_gates): Conv2d(42, 20, kernel_size=(3, 3), stride=(1, 1), padding=(1, 1), bias=False)
      (conv_can): Conv2d(42, 10, kernel_size=(3, 3), stride=(1, 1), padding=(1, 1), bias=False)
    )
    (6): ConvGRUBasalTopDownCell(
      (conv_gates): Conv2d(20, 20, kernel_size=(3, 3), stride=(1, 1), padding=(1, 1), bias=False)
      (conv_can): Conv2d(20, 10, kernel_size=(3, 3), stride=(1, 1), padding=(1, 1), bias=False)
    )
  )
)
Loading existing ConvGRU model
No pretrained readout found. Training new one.
Completed for graph big_rnn with seed 1.
Loading datasets
Architecture(
  (dropout): Dropout(p=0.25, inplace=False)
  (cell_list): ModuleList(
    (0): ConvGRUBasalTopDownCell(
      (conv_gates): Conv2d(11, 20, kernel_size=(3, 3), stride=(1, 1), padding=(1, 1), bias=False)
      (conv_can): Conv2d(11, 10, kernel_size=(3, 3), stride=(1, 1), padding=(1, 1), bias=False)
    )
    (1-2): 2 x ConvGRUBasalTopDownCell(
      (conv_gates): Conv2d(20, 20, kernel_size=(3, 3), stride=(1, 1), padding=(1, 1), bias=False)
      (conv_can): Conv2d(20, 10, kernel_size=(3, 3), stride=(1, 1), padding=(1, 1), bias=False)
    )
    (3): ConvGRUBasalTopDownCell(
      (conv_gates): Conv2d(20, 20, kernel_size=(1, 1), stride=(1, 1), bias=False)
      (conv_can): Conv2d(20, 10, kernel_size=(1, 1), stride=(1, 1), bias=False)
    )
    (4): ConvGRUBasalTopDownCell(
      (conv_gates): Conv2d(11, 20, kernel_size=(3, 3), stride=(1, 1), padding=(1, 1), bias=False)
      (conv_can): Conv2d(11, 10, kernel_size=(3, 3), stride=(1, 1), padding=(1, 1), bias=False)
    )
    (5): ConvGRUBasalTopDownCell(
      (conv_gates): Conv2d(42, 20, kernel_size=(3, 3), stride=(1, 1), padding=(1, 1), bias=False)
      (conv_can): Conv2d(42, 10, kernel_size=(3, 3), stride=(1, 1), padding=(1, 1), bias=False)
    )
    (6): ConvGRUBasalTopDownCell(
      (conv_gates): Conv2d(20, 20, kernel_size=(3, 3), stride=(1, 1), padding=(1, 1), bias=False)
      (conv_can): Conv2d(20, 10, kernel_size=(3, 3), stride=(1, 1), padding=(1, 1), bias=False)
    )
  )
)
No pretrained model found. Training new one.
No pretrained readout found. Training new one.
Completed for graph big_rnn with seed 2.
Loading datasets
Architecture(
  (dropout): Dropout(p=0.25, inplace=False)
  (cell_list): ModuleList(
    (0): ConvGRUBasalTopDownCell(
      (conv_gates): Conv2d(11, 20, kernel_size=(3, 3), stride=(1, 1), padding=(1, 1), bias=False)
      (conv_can): Conv2d(11, 10, kernel_size=(3, 3), stride=(1, 1), padding=(1, 1), bias=False)
    )
    (1-2): 2 x ConvGRUBasalTopDownCell(
      (conv_gates): Conv2d(20, 20, kernel_size=(3, 3), stride=(1, 1), padding=(1, 1), bias=False)
      (conv_can): Conv2d(20, 10, kernel_size=(3, 3), stride=(1, 1), padding=(1, 1), bias=False)
    )
    (3): ConvGRUBasalTopDownCell(
      (conv_gates): Conv2d(20, 20, kernel_size=(1, 1), stride=(1, 1), bias=False)
      (conv_can): Conv2d(20, 10, kernel_size=(1, 1), stride=(1, 1), bias=False)
    )
    (4): ConvGRUBasalTopDownCell(
      (conv_gates): Conv2d(11, 20, kernel_size=(3, 3), stride=(1, 1), padding=(1, 1), bias=False)
      (conv_can): Conv2d(11, 10, kernel_size=(3, 3), stride=(1, 1), padding=(1, 1), bias=False)
    )
    (5): ConvGRUBasalTopDownCell(
      (conv_gates): Conv2d(42, 20, kernel_size=(3, 3), stride=(1, 1), padding=(1, 1), bias=False)
      (conv_can): Conv2d(42, 10, kernel_size=(3, 3), stride=(1, 1), padding=(1, 1), bias=False)
    )
    (6): ConvGRUBasalTopDownCell(
      (conv_gates): Conv2d(20, 20, kernel_size=(3, 3), stride=(1, 1), padding=(1, 1), bias=False)
      (conv_can): Conv2d(20, 10, kernel_size=(3, 3), stride=(1, 1), padding=(1, 1), bias=False)
    )
  )
)
No pretrained model found. Training new one.
No pretrained readout found. Training new one.
Completed for graph big_rnn with seed 3.
All runs completed successfully.

======== GPU REPORT ========

==============NVSMI LOG==============

Timestamp                                 : Wed Nov 27 16:59:10 2024
Driver Version                            : 560.35.03
…
|  GPU   GI   CI        PID   Type   Process name                              GPU Memory |
|        ID   ID                                                               Usage      |
|=========================================================================================|
|  No running processes found                                                             |
+-----------------------------------------------------------------------------------------+
Loading datasets
Architecture(
  (dropout): Dropout(p=0.25, inplace=False)
  (cell_list): ModuleList(
    (0): ConvGRUBasalTopDownCell(
      (conv_gates): Conv2d(11, 20, kernel_size=(3, 3), stride=(1, 1), padding=(1, 1), bias=False)
      (conv_can): Conv2d(12, 10, kernel_size=(3, 3), stride=(1, 1), padding=(1, 1), bias=False)
    )
    (1-2): 2 x ConvGRUBasalTopDownCell(
      (conv_gates): Conv2d(20, 20, kernel_size=(3, 3), stride=(1, 1), padding=(1, 1), bias=False)
      (conv_can): Conv2d(21, 10, kernel_size=(3, 3), stride=(1, 1), padding=(1, 1), bias=False)
    )
    (3): ConvGRUBasalTopDownCell(
      (conv_gates): Conv2d(20, 20, kernel_size=(1, 1), stride=(1, 1), bias=False)
      (conv_can): Conv2d(21, 10, kernel_size=(1, 1), stride=(1, 1), bias=False)
    )
    (4): ConvGRUBasalTopDownCell(
      (conv_gates): Conv2d(11, 20, kernel_size=(3, 3), stride=(1, 1), padding=(1, 1), bias=False)
      (conv_can): Conv2d(12, 10, kernel_size=(3, 3), stride=(1, 1), padding=(1, 1), bias=False)
    )
    (5-7): 3 x ConvGRUBasalTopDownCell(
      (conv_gates): Conv2d(20, 20, kernel_size=(3, 3), stride=(1, 1), padding=(1, 1), bias=False)
      (conv_can): Conv2d(21, 10, kernel_size=(3, 3), stride=(1, 1), padding=(1, 1), bias=False)
    )
  )
)
Loading existing ConvGRU model
| epoch   0 | running loss 0.0000 | train accuracy 0.00000 |VS1 accuracy 0.07381 | VS2 accuracy 0.11429 | AS1 accuracy 0.05000 | AS2 accuracy 0.09762 |control image alignment 0.11000 |control audio alignment 0.05250
Script failed for graph brainlike_MPC with seed 1.

======== GPU REPORT ========
…
|  GPU   GI   CI        PID   Type   Process name                              GPU Memory |
|        ID   ID                                                               Usage      |
|=========================================================================================|
|  No running processes found                                                             |
+-----------------------------------------------------------------------------------------+
Loading datasets
Architecture(
  (dropout): Dropout(p=0.25, inplace=False)
  (cell_list): ModuleList(
    (0): ConvGRUBasalTopDownCell(
      (conv_gates): Conv2d(11, 20, kernel_size=(3, 3), stride=(1, 1), padding=(1, 1), bias=False)
      (conv_can): Conv2d(12, 10, kernel_size=(3, 3), stride=(1, 1), padding=(1, 1), bias=False)
    )
    (1-2): 2 x ConvGRUBasalTopDownCell(
      (conv_gates): Conv2d(20, 20, kernel_size=(3, 3), stride=(1, 1), padding=(1, 1), bias=False)
      (conv_can): Conv2d(21, 10, kernel_size=(3, 3), stride=(1, 1), padding=(1, 1), bias=False)
    )
    (3): ConvGRUBasalTopDownCell(
      (conv_gates): Conv2d(20, 20, kernel_size=(1, 1), stride=(1, 1), bias=False)
      (conv_can): Conv2d(21, 10, kernel_size=(1, 1), stride=(1, 1), bias=False)
    )
    (4): ConvGRUBasalTopDownCell(
      (conv_gates): Conv2d(11, 20, kernel_size=(3, 3), stride=(1, 1), padding=(1, 1), bias=False)
      (conv_can): Conv2d(12, 10, kernel_size=(3, 3), stride=(1, 1), padding=(1, 1), bias=False)
    )
    (5-7): 3 x ConvGRUBasalTopDownCell(
      (conv_gates): Conv2d(20, 20, kernel_size=(3, 3), stride=(1, 1), padding=(1, 1), bias=False)
      (conv_can): Conv2d(21, 10, kernel_size=(3, 3), stride=(1, 1), padding=(1, 1), bias=False)
    )
  )
)
Loading existing ConvGRU model
| epoch   0 | running loss 0.0000 | train accuracy 0.00000 |VS1 accuracy 0.07381 | VS2 accuracy 0.11429 | AS1 accuracy 0.05000 | AS2 accuracy 0.09762 |control image alignment 0.11000 |control audio alignment 0.05250
Completed for graph brainlike_MPC with seed 1.
Loading datasets
Architecture(
  (dropout): Dropout(p=0.25, inplace=False)
  (cell_list): ModuleList(
    (0): ConvGRUBasalTopDownCell(
      (conv_gates): Conv2d(11, 20, kernel_size=(3, 3), stride=(1, 1), padding=(1, 1), bias=False)
      (conv_can): Conv2d(12, 10, kernel_size=(3, 3), stride=(1, 1), padding=(1, 1), bias=False)
    )
    (1-2): 2 x ConvGRUBasalTopDownCell(
      (conv_gates): Conv2d(20, 20, kernel_size=(3, 3), stride=(1, 1), padding=(1, 1), bias=False)
      (conv_can): Conv2d(21, 10, kernel_size=(3, 3), stride=(1, 1), padding=(1, 1), bias=False)
    )
    (3): ConvGRUBasalTopDownCell(
      (conv_gates): Conv2d(20, 20, kernel_size=(1, 1), stride=(1, 1), bias=False)
      (conv_can): Conv2d(21, 10, kernel_size=(1, 1), stride=(1, 1), bias=False)
    )
    (4): ConvGRUBasalTopDownCell(
      (conv_gates): Conv2d(11, 20, kernel_size=(3, 3), stride=(1, 1), padding=(1, 1), bias=False)
      (conv_can): Conv2d(12, 10, kernel_size=(3, 3), stride=(1, 1), padding=(1, 1), bias=False)
    )
    (5-7): 3 x ConvGRUBasalTopDownCell(
      (conv_gates): Conv2d(20, 20, kernel_size=(3, 3), stride=(1, 1), padding=(1, 1), bias=False)
      (conv_can): Conv2d(21, 10, kernel_size=(3, 3), stride=(1, 1), padding=(1, 1), bias=False)
    )
  )
)
Loading existing ConvGRU model
| epoch   0 | running loss 0.0000 | train accuracy 0.00000 |VS1 accuracy 0.13571 | VS2 accuracy 0.13333 | AS1 accuracy 0.20750 | AS2 accuracy 0.11429 |control image alignment 0.08750 |control audio alignment 0.18500
Completed for graph brainlike_MPC with seed 2.
Loading datasets
Architecture(
  (dropout): Dropout(p=0.25, inplace=False)
  (cell_list): ModuleList(
    (0): ConvGRUBasalTopDownCell(
      (conv_gates): Conv2d(11, 20, kernel_size=(3, 3), stride=(1, 1), padding=(1, 1), bias=False)
      (conv_can): Conv2d(12, 10, kernel_size=(3, 3), stride=(1, 1), padding=(1, 1), bias=False)
    )
    (1-2): 2 x ConvGRUBasalTopDownCell(
      (conv_gates): Conv2d(20, 20, kernel_size=(3, 3), stride=(1, 1), padding=(1, 1), bias=False)
      (conv_can): Conv2d(21, 10, kernel_size=(3, 3), stride=(1, 1), padding=(1, 1), bias=False)
    )
    (3): ConvGRUBasalTopDownCell(
      (conv_gates): Conv2d(20, 20, kernel_size=(1, 1), stride=(1, 1), bias=False)
      (conv_can): Conv2d(21, 10, kernel_size=(1, 1), stride=(1, 1), bias=False)
    )
    (4): ConvGRUBasalTopDownCell(
      (conv_gates): Conv2d(11, 20, kernel_size=(3, 3), stride=(1, 1), padding=(1, 1), bias=False)
      (conv_can): Conv2d(12, 10, kernel_size=(3, 3), stride=(1, 1), padding=(1, 1), bias=False)
    )
    (5-7): 3 x ConvGRUBasalTopDownCell(
      (conv_gates): Conv2d(20, 20, kernel_size=(3, 3), stride=(1, 1), padding=(1, 1), bias=False)
      (conv_can): Conv2d(21, 10, kernel_size=(3, 3), stride=(1, 1), padding=(1, 1), bias=False)
    )
  )
)
Loading existing ConvGRU model
| epoch   0 | running loss 0.0000 | train accuracy 0.00000 |VS1 accuracy 0.08095 | VS2 accuracy 0.08333 | AS1 accuracy 0.04250 | AS2 accuracy 0.06190 |control image alignment 0.11500 |control audio alignment 0.03750
Completed for graph brainlike_MPC with seed 3.
Loading datasets
Architecture(
  (dropout): Dropout(p=0.25, inplace=False)
  (cell_list): ModuleList(
    (0): ConvGRUBasalTopDownCell(
      (conv_gates): Conv2d(11, 20, kernel_size=(3, 3), stride=(1, 1), padding=(1, 1), bias=False)
      (conv_can): Conv2d(12, 10, kernel_size=(3, 3), stride=(1, 1), padding=(1, 1), bias=False)
    )
    (1-2): 2 x ConvGRUBasalTopDownCell(
      (conv_gates): Conv2d(20, 20, kernel_size=(3, 3), stride=(1, 1), padding=(1, 1), bias=False)
      (conv_can): Conv2d(21, 10, kernel_size=(3, 3), stride=(1, 1), padding=(1, 1), bias=False)
    )
    (3): ConvGRUBasalTopDownCell(
      (conv_gates): Conv2d(20, 20, kernel_size=(1, 1), stride=(1, 1), bias=False)
      (conv_can): Conv2d(21, 10, kernel_size=(1, 1), stride=(1, 1), bias=False)
    )
    (4): ConvGRUBasalTopDownCell(
      (conv_gates): Conv2d(11, 20, kernel_size=(3, 3), stride=(1, 1), padding=(1, 1), bias=False)
      (conv_can): Conv2d(12, 10, kernel_size=(3, 3), stride=(1, 1), padding=(1, 1), bias=False)
    )
    (5-7): 3 x ConvGRUBasalTopDownCell(
      (conv_gates): Conv2d(20, 20, kernel_size=(3, 3), stride=(1, 1), padding=(1, 1), bias=False)
      (conv_can): Conv2d(21, 10, kernel_size=(3, 3), stride=(1, 1), padding=(1, 1), bias=False)
    )
  )
)
Loading existing ConvGRU model
| epoch   0 | running loss 0.0000 | train accuracy 0.00000 |VS1 accuracy 0.10476 | VS2 accuracy 0.08333 | AS1 accuracy 0.09250 | AS2 accuracy 0.12143 |control image alignment 0.15500 |control audio alignment 0.08500
Completed for graph brainlike_thickness with seed 1.
Loading datasets
Architecture(
  (dropout): Dropout(p=0.25, inplace=False)
  (cell_list): ModuleList(
    (0): ConvGRUBasalTopDownCell(
      (conv_gates): Conv2d(11, 20, kernel_size=(3, 3), stride=(1, 1), padding=(1, 1), bias=False)
      (conv_can): Conv2d(12, 10, kernel_size=(3, 3), stride=(1, 1), padding=(1, 1), bias=False)
    )
    (1-2): 2 x ConvGRUBasalTopDownCell(
      (conv_gates): Conv2d(20, 20, kernel_size=(3, 3), stride=(1, 1), padding=(1, 1), bias=False)
      (conv_can): Conv2d(21, 10, kernel_size=(3, 3), stride=(1, 1), padding=(1, 1), bias=False)
    )
    (3): ConvGRUBasalTopDownCell(
      (conv_gates): Conv2d(20, 20, kernel_size=(1, 1), stride=(1, 1), bias=False)
      (conv_can): Conv2d(21, 10, kernel_size=(1, 1), stride=(1, 1), bias=False)
    )
    (4): ConvGRUBasalTopDownCell(
      (conv_gates): Conv2d(11, 20, kernel_size=(3, 3), stride=(1, 1), padding=(1, 1), bias=False)
      (conv_can): Conv2d(12, 10, kernel_size=(3, 3), stride=(1, 1), padding=(1, 1), bias=False)
    )
    (5-7): 3 x ConvGRUBasalTopDownCell(
      (conv_gates): Conv2d(20, 20, kernel_size=(3, 3), stride=(1, 1), padding=(1, 1), bias=False)
      (conv_can): Conv2d(21, 10, kernel_size=(3, 3), stride=(1, 1), padding=(1, 1), bias=False)
    )
  )
)
Loading existing ConvGRU model
| epoch   0 | running loss 0.0000 | train accuracy 0.00000 |VS1 accuracy 0.08810 | VS2 accuracy 0.07857 | AS1 accuracy 0.11250 | AS2 accuracy 0.11667 |control image alignment 0.06000 |control audio alignment 0.20250
Completed for graph brainlike_thickness with seed 2.
Loading datasets
Architecture(
  (dropout): Dropout(p=0.25, inplace=False)
  (cell_list): ModuleList(
    (0): ConvGRUBasalTopDownCell(
      (conv_gates): Conv2d(11, 20, kernel_size=(3, 3), stride=(1, 1), padding=(1, 1), bias=False)
      (conv_can): Conv2d(12, 10, kernel_size=(3, 3), stride=(1, 1), padding=(1, 1), bias=False)
    )
    (1-2): 2 x ConvGRUBasalTopDownCell(
      (conv_gates): Conv2d(20, 20, kernel_size=(3, 3), stride=(1, 1), padding=(1, 1), bias=False)
      (conv_can): Conv2d(21, 10, kernel_size=(3, 3), stride=(1, 1), padding=(1, 1), bias=False)
    )
    (3): ConvGRUBasalTopDownCell(
      (conv_gates): Conv2d(20, 20, kernel_size=(1, 1), stride=(1, 1), bias=False)
      (conv_can): Conv2d(21, 10, kernel_size=(1, 1), stride=(1, 1), bias=False)
    )
    (4): ConvGRUBasalTopDownCell(
      (conv_gates): Conv2d(11, 20, kernel_size=(3, 3), stride=(1, 1), padding=(1, 1), bias=False)
      (conv_can): Conv2d(12, 10, kernel_size=(3, 3), stride=(1, 1), padding=(1, 1), bias=False)
    )
    (5-7): 3 x ConvGRUBasalTopDownCell(
      (conv_gates): Conv2d(20, 20, kernel_size=(3, 3), stride=(1, 1), padding=(1, 1), bias=False)
      (conv_can): Conv2d(21, 10, kernel_size=(3, 3), stride=(1, 1), padding=(1, 1), bias=False)
    )
  )
)
Loading existing ConvGRU model
| epoch   0 | running loss 0.0000 | train accuracy 0.00000 |VS1 accuracy 0.10714 | VS2 accuracy 0.10952 | AS1 accuracy 0.05250 | AS2 accuracy 0.04048 |control image alignment 0.12750 |control audio alignment 0.06750
Completed for graph brainlike_thickness with seed 3.
Loading datasets
Architecture(
  (dropout): Dropout(p=0.25, inplace=False)
  (cell_list): ModuleList(
    (0): ConvGRUBasalTopDownCell(
      (conv_gates): Conv2d(11, 20, kernel_size=(3, 3), stride=(1, 1), padding=(1, 1), bias=False)
      (conv_can): Conv2d(12, 10, kernel_size=(3, 3), stride=(1, 1), padding=(1, 1), bias=False)
    )
    (1-2): 2 x ConvGRUBasalTopDownCell(
      (conv_gates): Conv2d(20, 20, kernel_size=(3, 3), stride=(1, 1), padding=(1, 1), bias=False)
      (conv_can): Conv2d(21, 10, kernel_size=(3, 3), stride=(1, 1), padding=(1, 1), bias=False)
    )
    (3): ConvGRUBasalTopDownCell(
      (conv_gates): Conv2d(20, 20, kernel_size=(1, 1), stride=(1, 1), bias=False)
      (conv_can): Conv2d(21, 10, kernel_size=(1, 1), stride=(1, 1), bias=False)
    )
    (4): ConvGRUBasalTopDownCell(
      (conv_gates): Conv2d(11, 20, kernel_size=(3, 3), stride=(1, 1), padding=(1, 1), bias=False)
      (conv_can): Conv2d(12, 10, kernel_size=(3, 3), stride=(1, 1), padding=(1, 1), bias=False)
    )
    (5-7): 3 x ConvGRUBasalTopDownCell(
      (conv_gates): Conv2d(20, 20, kernel_size=(3, 3), stride=(1, 1), padding=(1, 1), bias=False)
      (conv_can): Conv2d(21, 10, kernel_size=(3, 3), stride=(1, 1), padding=(1, 1), bias=False)
    )
  )
)
Loading existing ConvGRU model
| epoch   0 | running loss 0.0000 | train accuracy 0.00000 |VS1 accuracy 0.08571 | VS2 accuracy 0.09762 | AS1 accuracy 0.07750 | AS2 accuracy 0.10000 |control image alignment 0.11500 |control audio alignment 0.09000
Completed for graph random2 with seed 1.
Loading datasets
Architecture(
  (dropout): Dropout(p=0.25, inplace=False)
  (cell_list): ModuleList(
    (0): ConvGRUBasalTopDownCell(
      (conv_gates): Conv2d(11, 20, kernel_size=(3, 3), stride=(1, 1), padding=(1, 1), bias=False)
      (conv_can): Conv2d(12, 10, kernel_size=(3, 3), stride=(1, 1), padding=(1, 1), bias=False)
    )
    (1-2): 2 x ConvGRUBasalTopDownCell(
      (conv_gates): Conv2d(20, 20, kernel_size=(3, 3), stride=(1, 1), padding=(1, 1), bias=False)
      (conv_can): Conv2d(21, 10, kernel_size=(3, 3), stride=(1, 1), padding=(1, 1), bias=False)
    )
    (3): ConvGRUBasalTopDownCell(
      (conv_gates): Conv2d(20, 20, kernel_size=(1, 1), stride=(1, 1), bias=False)
      (conv_can): Conv2d(21, 10, kernel_size=(1, 1), stride=(1, 1), bias=False)
    )
    (4): ConvGRUBasalTopDownCell(
      (conv_gates): Conv2d(11, 20, kernel_size=(3, 3), stride=(1, 1), padding=(1, 1), bias=False)
      (conv_can): Conv2d(12, 10, kernel_size=(3, 3), stride=(1, 1), padding=(1, 1), bias=False)
    )
    (5-7): 3 x ConvGRUBasalTopDownCell(
      (conv_gates): Conv2d(20, 20, kernel_size=(3, 3), stride=(1, 1), padding=(1, 1), bias=False)
      (conv_can): Conv2d(21, 10, kernel_size=(3, 3), stride=(1, 1), padding=(1, 1), bias=False)
    )
  )
)
Loading existing ConvGRU model
| epoch   0 | running loss 0.0000 | train accuracy 0.00000 |VS1 accuracy 0.14286 | VS2 accuracy 0.10000 | AS1 accuracy 0.21750 | AS2 accuracy 0.13333 |control image alignment 0.08750 |control audio alignment 0.21750
Completed for graph random2 with seed 2.
Loading datasets
Architecture(
  (dropout): Dropout(p=0.25, inplace=False)
  (cell_list): ModuleList(
    (0): ConvGRUBasalTopDownCell(
      (conv_gates): Conv2d(11, 20, kernel_size=(3, 3), stride=(1, 1), padding=(1, 1), bias=False)
      (conv_can): Conv2d(12, 10, kernel_size=(3, 3), stride=(1, 1), padding=(1, 1), bias=False)
    )
    (1-2): 2 x ConvGRUBasalTopDownCell(
      (conv_gates): Conv2d(20, 20, kernel_size=(3, 3), stride=(1, 1), padding=(1, 1), bias=False)
      (conv_can): Conv2d(21, 10, kernel_size=(3, 3), stride=(1, 1), padding=(1, 1), bias=False)
    )
    (3): ConvGRUBasalTopDownCell(
      (conv_gates): Conv2d(20, 20, kernel_size=(1, 1), stride=(1, 1), bias=False)
      (conv_can): Conv2d(21, 10, kernel_size=(1, 1), stride=(1, 1), bias=False)
    )
    (4): ConvGRUBasalTopDownCell(
      (conv_gates): Conv2d(11, 20, kernel_size=(3, 3), stride=(1, 1), padding=(1, 1), bias=False)
      (conv_can): Conv2d(12, 10, kernel_size=(3, 3), stride=(1, 1), padding=(1, 1), bias=False)
    )
    (5-7): 3 x ConvGRUBasalTopDownCell(
      (conv_gates): Conv2d(20, 20, kernel_size=(3, 3), stride=(1, 1), padding=(1, 1), bias=False)
      (conv_can): Conv2d(21, 10, kernel_size=(3, 3), stride=(1, 1), padding=(1, 1), bias=False)
    )
  )
)
Loading existing ConvGRU model
| epoch   0 | running loss 0.0000 | train accuracy 0.00000 |VS1 accuracy 0.07143 | VS2 accuracy 0.10000 | AS1 accuracy 0.05500 | AS2 accuracy 0.05476 |control image alignment 0.09500 |control audio alignment 0.06000
Completed for graph random2 with seed 3.
All runs completed successfully.
…
